…
18/18 [==============================] - 3s 158ms/step - loss: 0.0365 - accuracy: 1.0000
Epoch 18/20
18/18 [==============================] - 3s 159ms/step - loss: 0.0362 - accuracy: 1.0000
Epoch 19/20
18/18 [==============================] - 3s 159ms/step - loss: 0.0353 - accuracy: 1.0000
Epoch 20/20
18/18 [==============================] - 3s 161ms/step - loss: 0.0333 - accuracy: 1.0000
Model: "sequential"
_________________________________________________________________
Layer (type)                 Output Shape              Param #
=================================================================
conv1d (Conv1D)              (None, 1024, 32)          192
_________________________________________________________________
batch_normalization (BatchNo (None, 1024, 32)          128
_________________________________________________________________
activation (Activation)      (None, 1024, 32)          0
_________________________________________________________________
average_pooling1d (AveragePo (None, 512, 32)           0
_________________________________________________________________
conv1d_1 (Conv1D)            (None, 512, 16)           2576
_________________________________________________________________
batch_normalization_1 (Batch (None, 512, 16)           64
_________________________________________________________________
activation_1 (Activation)    (None, 512, 16)           0
_________________________________________________________________
average_pooling1d_1 (Average (None, 256, 16)           0
_________________________________________________________________
flatten (Flatten)            (None, 4096)              0
_________________________________________________________________
dense (Dense)                (None, 120)               491640
_________________________________________________________________
dense_1 (Dense)              (None, 10)                1210
=================================================================
Total params: 495,810
Trainable params: 495,714
Non-trainable params: 96
_________________________________________________________________
Test accuracy: 0.10276679694652557
-> 数据位置:../../data/0HP
-> 原始数据采样频率:12000Hz,
-> 数据增强和0类数据降采样后共有：3033条,
-> 单个数据长度：1024采样点,
-> 重叠量:630个采样点,
-> 类别数据数目: dict_items([(0, 303), (1, 304), (2, 303), (3, 303), (4, 304), (5, 303), (6, 302), (7, 303), (8, 303), (9, 305)])
…
