…
8/8 [==============================] - 1s 124ms/step - loss: 0.1459 - accuracy: 0.9857
Epoch 18/20
8/8 [==============================] - 1s 123ms/step - loss: 0.1474 - accuracy: 0.9702
Epoch 19/20
8/8 [==============================] - 1s 121ms/step - loss: 0.1121 - accuracy: 0.9890
Epoch 20/20
8/8 [==============================] - 1s 126ms/step - loss: 0.1083 - accuracy: 0.9857
Model: "sequential"
_________________________________________________________________
Layer (type)                 Output Shape              Param #
=================================================================
conv1d (Conv1D)              (None, 1024, 32)          192
_________________________________________________________________
batch_normalization (BatchNo (None, 1024, 32)          128
_________________________________________________________________
activation (Activation)      (None, 1024, 32)          0
_________________________________________________________________
average_pooling1d (AveragePo (None, 512, 32)           0
_________________________________________________________________
conv1d_1 (Conv1D)            (None, 512, 16)           2576
_________________________________________________________________
batch_normalization_1 (Batch (None, 512, 16)           64
_________________________________________________________________
activation_1 (Activation)    (None, 512, 16)           0
_________________________________________________________________
average_pooling1d_1 (Average (None, 256, 16)           0
_________________________________________________________________
flatten (Flatten)            (None, 4096)              0
_________________________________________________________________
dense (Dense)                (None, 120)               491640
_________________________________________________________________
dense_1 (Dense)              (None, 10)                1210
=================================================================
Total params: 495,810
Trainable params: 495,714
Non-trainable params: 96
_________________________________________________________________
Test accuracy: 0.07920791953802109
-> 数据位置:../../data/0HP
-> 原始数据采样频率:12000Hz,
-> 数据增强和0类数据降采样后共有：1210条,
-> 单个数据长度：1024采样点,
-> 重叠量:24个采样点,
-> 类别数据数目: dict_items([(0, 121), (1, 121), (2, 121), (3, 121), (4, 121), (5, 121), (6, 120), (7, 121), (8, 121), (9, 122)])
…
