…
87/87 [==============================] - 14s 159ms/step - loss: 0.0187 - accuracy: 1.0000
Epoch 18/20
87/87 [==============================] - 14s 159ms/step - loss: 0.0179 - accuracy: 1.0000
Epoch 19/20
87/87 [==============================] - 14s 159ms/step - loss: 0.0172 - accuracy: 1.0000
Epoch 20/20
87/87 [==============================] - 14s 160ms/step - loss: 0.0165 - accuracy: 1.0000
Model: "sequential"
_________________________________________________________________
Layer (type)                 Output Shape              Param #
=================================================================
conv1d (Conv1D)              (None, 1024, 32)          192
_________________________________________________________________
batch_normalization (BatchNo (None, 1024, 32)          128
_________________________________________________________________
activation (Activation)      (None, 1024, 32)          0
_________________________________________________________________
average_pooling1d (AveragePo (None, 512, 32)           0
_________________________________________________________________
conv1d_1 (Conv1D)            (None, 512, 16)           2576
_________________________________________________________________
batch_normalization_1 (Batch (None, 512, 16)           64
_________________________________________________________________
activation_1 (Activation)    (None, 512, 16)           0
_________________________________________________________________
average_pooling1d_1 (Average (None, 256, 16)           0
_________________________________________________________________
flatten (Flatten)            (None, 4096)              0
_________________________________________________________________
dense (Dense)                (None, 120)               491640
_________________________________________________________________
dense_1 (Dense)              (None, 10)                1210
=================================================================
Total params: 495,810
Trainable params: 495,714
Non-trainable params: 96
_________________________________________________________________
Test accuracy: 0.8193880319595337
-> 数据位置:../../data/0HP
-> 原始数据采样频率:12000Hz,
-> 数据增强和0类数据降采样后共有：14769条,
-> 单个数据长度：1024采样点,
-> 重叠量:950个采样点,
-> 类别数据数目: dict_items([(0, 1477), (1, 1482), (2, 1475), (3, 1477), (4, 1479), (5, 1475), (6, 1468), (7, 1477), (8, 1475), (9, 1484)])
…
