…
18/18 [==============================] - 3s 152ms/step - loss: 0.0298 - accuracy: 1.0000
Epoch 18/20
18/18 [==============================] - 3s 156ms/step - loss: 0.0295 - accuracy: 1.0000
Epoch 19/20
18/18 [==============================] - 3s 156ms/step - loss: 0.0291 - accuracy: 1.0000
Epoch 20/20
18/18 [==============================] - 3s 156ms/step - loss: 0.0287 - accuracy: 1.0000
Model: "sequential"
_________________________________________________________________
Layer (type)                 Output Shape              Param #
=================================================================
conv1d (Conv1D)              (None, 1024, 32)          192
_________________________________________________________________
batch_normalization (BatchNo (None, 1024, 32)          128
_________________________________________________________________
activation (Activation)      (None, 1024, 32)          0
_________________________________________________________________
max_pooling1d (MaxPooling1D) (None, 256, 32)           0
_________________________________________________________________
conv1d_1 (Conv1D)            (None, 256, 64)           10304
_________________________________________________________________
batch_normalization_1 (Batch (None, 256, 64)           256
_________________________________________________________________
activation_1 (Activation)    (None, 256, 64)           0
_________________________________________________________________
max_pooling1d_1 (MaxPooling1 (None, 128, 64)           0
_________________________________________________________________
flatten (Flatten)            (None, 8192)              0
_________________________________________________________________
dense (Dense)                (None, 100)               819300
_________________________________________________________________
dense_1 (Dense)              (None, 10)                1010
=================================================================
Total params: 831,190
Trainable params: 830,998
Non-trainable params: 192
_________________________________________________________________
Test accuracy: 0.1462450623512268
-> 数据位置:../../data/0HP
-> 原始数据采样频率:12000Hz,
-> 数据增强和0类数据降采样后共有：3033条,
-> 单个数据长度：1024采样点,
-> 重叠量:630个采样点,
-> 类别数据数目: dict_items([(0, 303), (1, 304), (2, 303), (3, 303), (4, 304), (5, 303), (6, 302), (7, 303), (8, 303), (9, 305)])
…
