…
29/29 [==============================] - 5s 168ms/step - loss: 0.0393 - accuracy: 0.9879
Epoch 18/20
29/29 [==============================] - 5s 170ms/step - loss: 0.0532 - accuracy: 0.9824
Epoch 19/20
29/29 [==============================] - 5s 168ms/step - loss: 0.1565 - accuracy: 0.9669
Epoch 20/20
29/29 [==============================] - 5s 166ms/step - loss: 0.1010 - accuracy: 0.9757
Model: "sequential_80"
_________________________________________________________________
Layer (type)                 Output Shape              Param #
=================================================================
conv2d_160 (Conv2D)          (None, 32, 32, 32)        832
_________________________________________________________________
batch_normalization_160 (Bat (None, 32, 32, 32)        128
_________________________________________________________________
max_pooling2d (MaxPooling2D) (None, 16, 16, 32)        0
_________________________________________________________________
conv2d_161 (Conv2D)          (None, 16, 16, 64)        51264
_________________________________________________________________
batch_normalization_161 (Bat (None, 16, 16, 64)        256
_________________________________________________________________
max_pooling2d_1 (MaxPooling2 (None, 8, 8, 64)          0
_________________________________________________________________
flatten_80 (Flatten)         (None, 4096)              0
_________________________________________________________________
dense_160 (Dense)            (None, 1024)              4195328
_________________________________________________________________
dropout (Dropout)            (None, 1024)              0
_________________________________________________________________
dense_161 (Dense)            (None, 256)               262400
_________________________________________________________________
dropout_1 (Dropout)          (None, 256)               0
_________________________________________________________________
dense_162 (Dense)            (None, 10)                2570
=================================================================
Total params: 4,512,778
Trainable params: 4,512,586
Non-trainable params: 192
_________________________________________________________________
测试集上的损失： 6.338483810424805
模型上的正确率: 0.3465346395969391
本次消耗的时间为:109.73428010940552
-> 数据位置:../../data/0HP
-> 原始数据采样频率:12000Hz,
-> 数据增强和0类数据降采样后共有：1210条,
-> 单个数据长度：1024采样点,
-> 重叠量:24个采样点,
-> 类别数据数目: dict_items([(0, 121), (1, 121), (2, 121), (3, 121), (4, 121), (5, 121), (6, 120), (7, 121), (8, 121), (9, 122)])
…
