…
347/347 [==============================] - 47s 134ms/step - loss: 0.0447 - accuracy: 0.9963
Epoch 18/20
347/347 [==============================] - 46s 133ms/step - loss: 0.0516 - accuracy: 0.9962
Epoch 19/20
347/347 [==============================] - 46s 133ms/step - loss: 0.0412 - accuracy: 0.9958
Epoch 20/20
347/347 [==============================] - 46s 133ms/step - loss: 0.0273 - accuracy: 0.9982
Model: "sequential_24"
_________________________________________________________________
Layer (type)                 Output Shape              Param #
=================================================================
conv2d_48 (Conv2D)           (None, 32, 32, 32)        832
_________________________________________________________________
batch_normalization_48 (Batc (None, 32, 32, 32)        128
_________________________________________________________________
max_pooling2d (MaxPooling2D) (None, 16, 16, 32)        0
_________________________________________________________________
conv2d_49 (Conv2D)           (None, 16, 16, 64)        51264
_________________________________________________________________
batch_normalization_49 (Batc (None, 16, 16, 64)        256
_________________________________________________________________
max_pooling2d_1 (MaxPooling2 (None, 8, 8, 64)          0
_________________________________________________________________
flatten_24 (Flatten)         (None, 4096)              0
_________________________________________________________________
dense_48 (Dense)             (None, 1024)              4195328
_________________________________________________________________
dropout (Dropout)            (None, 1024)              0
_________________________________________________________________
dense_49 (Dense)             (None, 256)               262400
_________________________________________________________________
dropout_1 (Dropout)          (None, 256)               0
_________________________________________________________________
dense_50 (Dense)             (None, 10)                2570
=================================================================
Total params: 4,512,778
Trainable params: 4,512,586
Non-trainable params: 192
_________________________________________________________________
测试集上的损失： 0.02006279118359089
模型上的正确率: 0.9989168643951416
本次消耗的时间为:938.3295381069183
-> 数据位置:../../data/0HP
-> 原始数据采样频率:12000Hz,
-> 数据增强和0类数据降采样后共有：14769条,
-> 单个数据长度：1024采样点,
-> 重叠量:950个采样点,
…
