…
72/72 [==============================] - 9s 121ms/step - loss: 0.1115 - accuracy: 0.9837
Epoch 18/20
72/72 [==============================] - 9s 122ms/step - loss: 0.0695 - accuracy: 0.9842
Epoch 19/20
72/72 [==============================] - 9s 122ms/step - loss: 0.0988 - accuracy: 0.9780
Epoch 20/20
72/72 [==============================] - 9s 120ms/step - loss: 0.1414 - accuracy: 0.9741
Model: "sequential_80"
_________________________________________________________________
Layer (type)                 Output Shape              Param #
=================================================================
conv2d_160 (Conv2D)          (None, 32, 32, 32)        832
_________________________________________________________________
batch_normalization_160 (Bat (None, 32, 32, 32)        128
_________________________________________________________________
max_pooling2d (MaxPooling2D) (None, 16, 16, 32)        0
_________________________________________________________________
conv2d_161 (Conv2D)          (None, 16, 16, 64)        51264
_________________________________________________________________
batch_normalization_161 (Bat (None, 16, 16, 64)        256
_________________________________________________________________
max_pooling2d_1 (MaxPooling2 (None, 8, 8, 64)          0
_________________________________________________________________
flatten_80 (Flatten)         (None, 4096)              0
_________________________________________________________________
dense_160 (Dense)            (None, 1024)              4195328
_________________________________________________________________
dropout (Dropout)            (None, 1024)              0
_________________________________________________________________
dense_161 (Dense)            (None, 256)               262400
_________________________________________________________________
dropout_1 (Dropout)          (None, 256)               0
_________________________________________________________________
dense_162 (Dense)            (None, 10)                2570
=================================================================
Total params: 4,512,778
Trainable params: 4,512,586
Non-trainable params: 192
_________________________________________________________________
测试集上的损失： 0.2958604693412781
模型上的正确率: 0.9354413747787476
本次消耗的时间为:181.27089381217957
-> 数据位置:../../data/0HP
-> 原始数据采样频率:12000Hz,
-> 数据增强和0类数据降采样后共有：3033条,
-> 单个数据长度：1024采样点,
-> 重叠量:630个采样点,
-> 类别数据数目: dict_items([(0, 303), (1, 304), (2, 303), (3, 303), (4, 304), (5, 303), (6, 302), (7, 303), (8, 303), (9, 305)])
…
